Layers used:
[500, 200, 2, 200, 500]
Using nonlinear function relu
Using MSELoss loss function
Sequential(
  (0): Linear(in_features=784, out_features=500, bias=True)
  (1): ReLU()
  (2): Linear(in_features=500, out_features=200, bias=True)
  (3): ReLU()
  (4): Linear(in_features=200, out_features=2, bias=True)
  (5): Linear(in_features=2, out_features=200, bias=True)
  (6): ReLU()
  (7): Linear(in_features=200, out_features=500, bias=True)
  (8): ReLU()
  (9): Linear(in_features=500, out_features=784, bias=True)
)
Train Epoch: 0 [0/60000 (0%)]	Loss: 0.995098
Train Epoch: 0 [6400/60000 (11%)]	Loss: 0.585276
Train Epoch: 0 [12800/60000 (21%)]	Loss: 0.545281
Train Epoch: 0 [19200/60000 (32%)]	Loss: 0.533800
Train Epoch: 0 [25600/60000 (43%)]	Loss: 0.523701
Train Epoch: 0 [32000/60000 (53%)]	Loss: 0.501312
Train Epoch: 0 [38400/60000 (64%)]	Loss: 0.491584
Train Epoch: 0 [44800/60000 (75%)]	Loss: 0.484624
…
Train Epoch: 148, Loss: 0.297289
Train Epoch: 149 [0/60000 (0%)]	Loss: 0.324319
Train Epoch: 149 [6400/60000 (11%)]	Loss: 0.305569
Train Epoch: 149 [12800/60000 (21%)]	Loss: 0.327807
Train Epoch: 149 [19200/60000 (32%)]	Loss: 0.303240
Train Epoch: 149 [25600/60000 (43%)]	Loss: 0.318516
Train Epoch: 149 [32000/60000 (53%)]	Loss: 0.331272
Train Epoch: 149 [38400/60000 (64%)]	Loss: 0.324492
Train Epoch: 149 [44800/60000 (75%)]	Loss: 0.314755
Train Epoch: 149 [51200/60000 (85%)]	Loss: 0.339889
Train Epoch: 149 [57600/60000 (96%)]	Loss: 0.324437
Train Epoch: 149, Loss: 0.347521
Autoencoder(
  (net): Sequential(
    (0): Linear(in_features=784, out_features=500, bias=True)
    (1): ReLU()
    (2): Linear(in_features=500, out_features=200, bias=True)
    (3): ReLU()
    (4): Linear(in_features=200, out_features=2, bias=True)
    (5): Linear(in_features=2, out_features=200, bias=True)
    (6): ReLU()
    (7): Linear(in_features=200, out_features=500, bias=True)
    (8): ReLU()
    (9): Linear(in_features=500, out_features=784, bias=True)
  )
)
ENCODER:
Sequential(
  (0): Linear(in_features=784, out_features=500, bias=True)
  (1): ReLU()
  (2): Linear(in_features=500, out_features=200, bias=True)
  (3): ReLU()
  (4): Linear(in_features=200, out_features=2, bias=True)
)
Running encoder on 10000 elements
Number of batches: 79
              0         1  labels
0      0.131798 -5.743011       7
1      4.282710 -0.196961       2
2     -3.397210 -1.566713       1
3      1.690322  3.510987       0
4      0.241044 -0.037406       4
...         ...       ...     ...
9995  10.234881 -0.324668       2
9996   5.725450 -3.482878       3
9997   0.233700 -2.787924       4
9998  -2.115694 -2.738080       5
9999   1.293659  1.450164       6

[10000 rows x 3 columns]
Picked coordinates (15.819934789551809, -14.597353715868486)
DECODER:
Sequential(
  (5): Linear(in_features=2, out_features=200, bias=True)
  (6): ReLU()
  (7): Linear(in_features=200, out_features=500, bias=True)
  (8): ReLU()
  (9): Linear(in_features=500, out_features=784, bias=True)
)
Picked coordinates (-0.816812419625478, -15.62974433359739)
DECODER:
Sequential(
  (5): Linear(in_features=2, out_features=200, bias=True)
  (6): ReLU()
  (7): Linear(in_features=200, out_features=500, bias=True)
  (8): ReLU()
  (9): Linear(in_features=500, out_features=784, bias=True)
)
Picked coordinates (13.07190065232163, 14.080163443267761)
DECODER:
Sequential(
  (5): Linear(in_features=2, out_features=200, bias=True)
  (6): ReLU()
  (7): Linear(in_features=200, out_features=500, bias=True)
  (8): ReLU()
  (9): Linear(in_features=500, out_features=784, bias=True)
)
Picked coordinates (14.92868047477446, -2.3233763717581724)
DECODER:
Sequential(
  (5): Linear(in_features=2, out_features=200, bias=True)
  (6): ReLU()
  (7): Linear(in_features=200, out_features=500, bias=True)
  (8): ReLU()
  (9): Linear(in_features=500, out_features=784, bias=True)
)
Picked coordinates (13.814612581302761, -5.764678430854524)
DECODER:
Sequential(
  (5): Linear(in_features=2, out_features=200, bias=True)
  (6): ReLU()
  (7): Linear(in_features=200, out_features=500, bias=True)
  (8): ReLU()
  (9): Linear(in_features=500, out_features=784, bias=True)
)
Picked coordinates (-10.991965846666947, -17.579815500418654)
DECODER:
Sequential(
  (5): Linear(in_features=2, out_features=200, bias=True)
  (6): ReLU()
  (7): Linear(in_features=200, out_features=500, bias=True)
  (8): ReLU()
  (9): Linear(in_features=500, out_features=784, bias=True)
)
Picked coordinates (21.761630221400843, 21.651027973279728)
DECODER:
Sequential(
  (5): Linear(in_features=2, out_features=200, bias=True)
  (6): ReLU()
  (7): Linear(in_features=200, out_features=500, bias=True)
  (8): ReLU()
  (9): Linear(in_features=500, out_features=784, bias=True)
)
Picked coordinates (-13.591457598100899, 21.880448110552816)
DECODER:
Sequential(
  (5): Linear(in_features=2, out_features=200, bias=True)
  (6): ReLU()
  (7): Linear(in_features=200, out_features=500, bias=True)
  (8): ReLU()
  (9): Linear(in_features=500, out_features=784, bias=True)
)
Picked coordinates (2.7482048394839396, 20.50392728691428)
DECODER:
Sequential(
  (5): Linear(in_features=2, out_features=200, bias=True)
  (6): ReLU()
  (7): Linear(in_features=200, out_features=500, bias=True)
  (8): ReLU()
  (9): Linear(in_features=500, out_features=784, bias=True)
)
Picked coordinates (16.11701956114426, -14.25322350995885)
DECODER:
Sequential(
  (5): Linear(in_features=2, out_features=200, bias=True)
  (6): ReLU()
  (7): Linear(in_features=200, out_features=500, bias=True)
  (8): ReLU()
  (9): Linear(in_features=500, out_features=784, bias=True)
)
Picked coordinates (9.506883393212213, -7.3706193917661516)
DECODER:
Sequential(
  (5): Linear(in_features=2, out_features=200, bias=True)
  (6): ReLU()
  (7): Linear(in_features=200, out_features=500, bias=True)
  (8): ReLU()
  (9): Linear(in_features=500, out_features=784, bias=True)
)
Picked coordinates (10.695222479582021, -0.02917499902727272)
DECODER:
Sequential(
  (5): Linear(in_features=2, out_features=200, bias=True)
  (6): ReLU()
  (7): Linear(in_features=200, out_features=500, bias=True)
  (8): ReLU()
  (9): Linear(in_features=500, out_features=784, bias=True)
)
