Sequential(
  (0): Linear(in_features=784, out_features=1000, bias=True)
  (1): Sigmoid()
  (2): Linear(in_features=1000, out_features=500, bias=True)
  (3): Sigmoid()
  (4): Linear(in_features=500, out_features=250, bias=True)
  (5): Sigmoid()
  (6): Linear(in_features=250, out_features=2, bias=True)
  (7): Linear(in_features=2, out_features=250, bias=True)
  (8): Sigmoid()
  (9): Linear(in_features=250, out_features=500, bias=True)
  (10): Sigmoid()
  (11): Linear(in_features=500, out_features=1000, bias=True)
  (12): Sigmoid()
  (13): Linear(in_features=1000, out_features=784, bias=True)
)
Train Epoch: 0 [0/60000 (0%)]	Loss: 1.104162
Train Epoch: 0 [12800/60000 (21%)]	Loss: 0.719770
Train Epoch: 0 [25600/60000 (43%)]	Loss: 0.703528
Train Epoch: 0 [38400/60000 (64%)]	Loss: 0.711755
Train Epoch: 0 [51200/60000 (85%)]	Loss: 0.706763
Train Epoch: 0, Loss: 0.747538
Train Epoch: 1 [0/60000 (0%)]	Loss: 0.715636
Train Epoch: 1 [12800/60000 (21%)]	Loss: 0.695637
…
Train Epoch: 97, Loss: 0.360807
Train Epoch: 98 [0/60000 (0%)]	Loss: 0.378125
Train Epoch: 98 [12800/60000 (21%)]	Loss: 0.383084
Train Epoch: 98 [25600/60000 (43%)]	Loss: 0.363879
Train Epoch: 98 [38400/60000 (64%)]	Loss: 0.377956
Train Epoch: 98 [51200/60000 (85%)]	Loss: 0.372547
Train Epoch: 98, Loss: 0.380586
Train Epoch: 99 [0/60000 (0%)]	Loss: 0.363632
Train Epoch: 99 [12800/60000 (21%)]	Loss: 0.377668
Train Epoch: 99 [25600/60000 (43%)]	Loss: 0.364072
Train Epoch: 99 [38400/60000 (64%)]	Loss: 0.367798
Train Epoch: 99 [51200/60000 (85%)]	Loss: 0.372214
Train Epoch: 99, Loss: 0.378398
ENCODER:
Sequential(
  (0): Linear(in_features=784, out_features=1000, bias=True)
  (1): Sigmoid()
  (2): Linear(in_features=1000, out_features=500, bias=True)
  (3): Sigmoid()
  (4): Linear(in_features=500, out_features=250, bias=True)
  (5): Sigmoid()
  (6): Linear(in_features=250, out_features=2, bias=True)
)
Running encoder on 10000 elements
Number of batches: 40
             0         1  labels
0     1.342403 -2.627570       7
1    -2.706517 -0.053894       2
2    -7.614291 -5.903612       1
3     0.874535  1.983893       0
4     1.808244 -0.401794       4
...        ...       ...     ...
9995 -3.473890  0.057235       2
9996 -1.120679  1.436338       3
9997  0.187297 -1.546458       4
9998 -1.183161 -1.336556       5
9999  0.216157  0.519262       6

[10000 rows x 3 columns]
Picked coordinates (-2.851982053886063, 4.015785698843798)
DECODER:
Sequential(
  (7): Linear(in_features=2, out_features=250, bias=True)
  (8): Sigmoid()
  (9): Linear(in_features=250, out_features=500, bias=True)
  (10): Sigmoid()
  (11): Linear(in_features=500, out_features=1000, bias=True)
  (12): Sigmoid()
  (13): Linear(in_features=1000, out_features=784, bias=True)
)
Picked coordinates (-6.452338880994799, 4.3626261963043245)
DECODER:
Sequential(
  (7): Linear(in_features=2, out_features=250, bias=True)
  (8): Sigmoid()
  (9): Linear(in_features=250, out_features=500, bias=True)
  (10): Sigmoid()
  (11): Linear(in_features=500, out_features=1000, bias=True)
  (12): Sigmoid()
  (13): Linear(in_features=1000, out_features=784, bias=True)
)
Picked coordinates (-4.497859460564342, 3.173458776439661)
DECODER:
Sequential(
  (7): Linear(in_features=2, out_features=250, bias=True)
  (8): Sigmoid()
  (9): Linear(in_features=250, out_features=500, bias=True)
  (10): Sigmoid()
  (11): Linear(in_features=500, out_features=1000, bias=True)
  (12): Sigmoid()
  (13): Linear(in_features=1000, out_features=784, bias=True)
)
