Sequential(
  (0): Linear(in_features=784, out_features=1000, bias=True)
  (1): ReLU()
  (2): Linear(in_features=1000, out_features=500, bias=True)
  (3): ReLU()
  (4): Linear(in_features=500, out_features=250, bias=True)
  (5): ReLU()
  (6): Linear(in_features=250, out_features=2, bias=True)
  (7): Linear(in_features=2, out_features=250, bias=True)
  (8): ReLU()
  (9): Linear(in_features=250, out_features=500, bias=True)
  (10): ReLU()
  (11): Linear(in_features=500, out_features=1000, bias=True)
  (12): ReLU()
  (13): Linear(in_features=1000, out_features=784, bias=True)
)
Train Epoch: 0 [0/60000 (0%)]	Loss: 1.020361
Train Epoch: 0 [12800/60000 (21%)]	Loss: 0.649667
Train Epoch: 0 [25600/60000 (43%)]	Loss: 0.549680
Train Epoch: 0 [38400/60000 (64%)]	Loss: 0.536172
Train Epoch: 0 [51200/60000 (85%)]	Loss: 0.515721
Train Epoch: 0, Loss: 0.514247
Train Epoch: 1 [0/60000 (0%)]	Loss: 0.487758
Train Epoch: 1 [12800/60000 (21%)]	Loss: 0.465391
…
Train Epoch: 97, Loss: 0.340314
Train Epoch: 98 [0/60000 (0%)]	Loss: 0.353584
Train Epoch: 98 [12800/60000 (21%)]	Loss: 0.352710
Train Epoch: 98 [25600/60000 (43%)]	Loss: 0.341616
Train Epoch: 98 [38400/60000 (64%)]	Loss: 0.346143
Train Epoch: 98 [51200/60000 (85%)]	Loss: 0.335018
Train Epoch: 98, Loss: 0.349140
Train Epoch: 99 [0/60000 (0%)]	Loss: 0.340413
Train Epoch: 99 [12800/60000 (21%)]	Loss: 0.337237
Train Epoch: 99 [25600/60000 (43%)]	Loss: 0.325952
Train Epoch: 99 [38400/60000 (64%)]	Loss: 0.342171
Train Epoch: 99 [51200/60000 (85%)]	Loss: 0.330825
Train Epoch: 99, Loss: 0.342194
ENCODER:
Sequential(
  (0): Linear(in_features=784, out_features=1000, bias=True)
  (1): ReLU()
  (2): Linear(in_features=1000, out_features=500, bias=True)
  (3): ReLU()
  (4): Linear(in_features=500, out_features=250, bias=True)
  (5): ReLU()
  (6): Linear(in_features=250, out_features=2, bias=True)
)
Running encoder on 10000 elements
Number of batches: 40
             0          1  labels
0     6.565504 -10.633717       7
1    -2.170762  -4.028754       2
2    -0.822303  -0.832193       1
3    -5.686067   2.869691       0
4     0.295840  -2.094405       4
...        ...        ...     ...
9995 -0.668483  -2.114798       2
9996 -0.128703   0.108662       3
9997  2.673205  -1.714495       4
9998 -6.299466  -0.601321       5
9999 -2.082324   0.627174       6

[10000 rows x 3 columns]
Picked coordinates (43.660740124809934, -1.9375224428241893)
DECODER:
Sequential(
  (7): Linear(in_features=2, out_features=250, bias=True)
  (8): ReLU()
  (9): Linear(in_features=250, out_features=500, bias=True)
  (10): ReLU()
  (11): Linear(in_features=500, out_features=1000, bias=True)
  (12): ReLU()
  (13): Linear(in_features=1000, out_features=784, bias=True)
)
Picked coordinates (-79.7935797725541, -62.560703068889595)
DECODER:
Sequential(
  (7): Linear(in_features=2, out_features=250, bias=True)
  (8): ReLU()
  (9): Linear(in_features=250, out_features=500, bias=True)
  (10): ReLU()
  (11): Linear(in_features=500, out_features=1000, bias=True)
  (12): ReLU()
  (13): Linear(in_features=1000, out_features=784, bias=True)
)
Picked coordinates (-57.4715809719237, -7.550779908200639)
DECODER:
Sequential(
  (7): Linear(in_features=2, out_features=250, bias=True)
  (8): ReLU()
  (9): Linear(in_features=250, out_features=500, bias=True)
  (10): ReLU()
  (11): Linear(in_features=500, out_features=1000, bias=True)
  (12): ReLU()
  (13): Linear(in_features=1000, out_features=784, bias=True)
)
Picked coordinates (-129.44863832905844, -99.608202340374)
DECODER:
Sequential(
  (7): Linear(in_features=2, out_features=250, bias=True)
  (8): ReLU()
  (9): Linear(in_features=250, out_features=500, bias=True)
  (10): ReLU()
  (11): Linear(in_features=500, out_features=1000, bias=True)
  (12): ReLU()
  (13): Linear(in_features=1000, out_features=784, bias=True)
)
Picked coordinates (-87.53794670338506, 22.199484658294438)
DECODER:
Sequential(
  (7): Linear(in_features=2, out_features=250, bias=True)
  (8): ReLU()
  (9): Linear(in_features=250, out_features=500, bias=True)
  (10): ReLU()
  (11): Linear(in_features=500, out_features=1000, bias=True)
  (12): ReLU()
  (13): Linear(in_features=1000, out_features=784, bias=True)
)
Picked coordinates (19.51653734045462, 38.47793130788605)
DECODER:
Sequential(
  (7): Linear(in_features=2, out_features=250, bias=True)
  (8): ReLU()
  (9): Linear(in_features=250, out_features=500, bias=True)
  (10): ReLU()
  (11): Linear(in_features=500, out_features=1000, bias=True)
  (12): ReLU()
  (13): Linear(in_features=1000, out_features=784, bias=True)
)
Picked coordinates (50.0384540678472, 30.61937085635907)
DECODER:
Sequential(
  (7): Linear(in_features=2, out_features=250, bias=True)
  (8): ReLU()
  (9): Linear(in_features=250, out_features=500, bias=True)
  (10): ReLU()
  (11): Linear(in_features=500, out_features=1000, bias=True)
  (12): ReLU()
  (13): Linear(in_features=1000, out_features=784, bias=True)
)
Picked coordinates (50.949556059709664, -1.9375224428241893)
DECODER:
Sequential(
  (7): Linear(in_features=2, out_features=250, bias=True)
  (8): ReLU()
  (9): Linear(in_features=250, out_features=500, bias=True)
  (10): ReLU()
  (11): Linear(in_features=500, out_features=1000, bias=True)
  (12): ReLU()
  (13): Linear(in_features=1000, out_features=784, bias=True)
)
Picked coordinates (22.544400606602466, 11.055517631444133)
DECODER:
Sequential(
  (7): Linear(in_features=2, out_features=250, bias=True)
  (8): ReLU()
  (9): Linear(in_features=250, out_features=500, bias=True)
  (10): ReLU()
  (11): Linear(in_features=500, out_features=1000, bias=True)
  (12): ReLU()
  (13): Linear(in_features=1000, out_features=784, bias=True)
)
Picked coordinates (53.4686960969598, 35.81988880222249)
DECODER:
Sequential(
  (7): Linear(in_features=2, out_features=250, bias=True)
  (8): ReLU()
  (9): Linear(in_features=250, out_features=500, bias=True)
  (10): ReLU()
  (11): Linear(in_features=500, out_features=1000, bias=True)
  (12): ReLU()
  (13): Linear(in_features=1000, out_features=784, bias=True)
)
Picked coordinates (18.628223448434937, 14.27488588364534)
DECODER:
Sequential(
  (7): Linear(in_features=2, out_features=250, bias=True)
  (8): ReLU()
  (9): Linear(in_features=250, out_features=500, bias=True)
  (10): ReLU()
  (11): Linear(in_features=500, out_features=1000, bias=True)
  (12): ReLU()
  (13): Linear(in_features=1000, out_features=784, bias=True)
)
Picked coordinates (11.492049077042466, 8.32089893873382)
DECODER:
Sequential(
  (7): Linear(in_features=2, out_features=250, bias=True)
  (8): ReLU()
  (9): Linear(in_features=250, out_features=500, bias=True)
  (10): ReLU()
  (11): Linear(in_features=500, out_features=1000, bias=True)
  (12): ReLU()
  (13): Linear(in_features=1000, out_features=784, bias=True)
)
Picked coordinates (9.250936464539038, 9.084230598337882)
DECODER:
Sequential(
  (7): Linear(in_features=2, out_features=250, bias=True)
  (8): ReLU()
  (9): Linear(in_features=250, out_features=500, bias=True)
  (10): ReLU()
  (11): Linear(in_features=500, out_features=1000, bias=True)
  (12): ReLU()
  (13): Linear(in_features=1000, out_features=784, bias=True)
)
Picked coordinates (7.599590329010198, 7.404900947208986)
DECODER:
Sequential(
  (7): Linear(in_features=2, out_features=250, bias=True)
  (8): ReLU()
  (9): Linear(in_features=250, out_features=500, bias=True)
  (10): ReLU()
  (11): Linear(in_features=500, out_features=1000, bias=True)
  (12): ReLU()
  (13): Linear(in_features=1000, out_features=784, bias=True)
)
Picked coordinates (-2.51158822680366, 2.232638727740543)
DECODER:
Sequential(
  (7): Linear(in_features=2, out_features=250, bias=True)
  (8): ReLU()
  (9): Linear(in_features=250, out_features=500, bias=True)
  (10): ReLU()
  (11): Linear(in_features=500, out_features=1000, bias=True)
  (12): ReLU()
  (13): Linear(in_features=1000, out_features=784, bias=True)
)
Picked coordinates (-0.7642039586681086, -0.4487635926508826)
DECODER:
Sequential(
  (7): Linear(in_features=2, out_features=250, bias=True)
  (8): ReLU()
  (9): Linear(in_features=250, out_features=500, bias=True)
  (10): ReLU()
  (11): Linear(in_features=500, out_features=1000, bias=True)
  (12): ReLU()
  (13): Linear(in_features=1000, out_features=784, bias=True)
)
Picked coordinates (-0.7642039586681051, -0.4487635926508844)
DECODER:
Sequential(
  (7): Linear(in_features=2, out_features=250, bias=True)
  (8): ReLU()
  (9): Linear(in_features=250, out_features=500, bias=True)
  (10): ReLU()
  (11): Linear(in_features=500, out_features=1000, bias=True)
  (12): ReLU()
  (13): Linear(in_features=1000, out_features=784, bias=True)
)
