Sequential(
  (0): Linear(in_features=784, out_features=1000, bias=True)
  (1): ReLU()
  (2): Linear(in_features=1000, out_features=500, bias=True)
  (3): ReLU()
  (4): Linear(in_features=500, out_features=250, bias=True)
  (5): ReLU()
  (6): Linear(in_features=250, out_features=2, bias=True)
  (7): Linear(in_features=2, out_features=250, bias=True)
  (8): ReLU()
  (9): Linear(in_features=250, out_features=500, bias=True)
  (10): ReLU()
  (11): Linear(in_features=500, out_features=1000, bias=True)
  (12): ReLU()
  (13): Linear(in_features=1000, out_features=784, bias=True)
)
Train Epoch: 0 [0/60000 (0%)]	Loss: 1.020361
Train Epoch: 0 [12800/60000 (21%)]	Loss: 0.621445
Train Epoch: 0 [25600/60000 (43%)]	Loss: 0.552318
Train Epoch: 0 [38400/60000 (64%)]	Loss: 0.536556
Train Epoch: 0 [51200/60000 (85%)]	Loss: 0.526043
Train Epoch: 0, Loss: 0.540457
Train Epoch: 1 [0/60000 (0%)]	Loss: 0.502168
Train Epoch: 1 [12800/60000 (21%)]	Loss: 0.485845
…
Train Epoch: 148 [0/60000 (0%)]	Loss: 0.328986
Train Epoch: 148 [12800/60000 (21%)]	Loss: 0.314301
Train Epoch: 148 [25600/60000 (43%)]	Loss: 0.340157
Train Epoch: 148 [38400/60000 (64%)]	Loss: 0.322068
Train Epoch: 148 [51200/60000 (85%)]	Loss: 0.323473
Train Epoch: 148, Loss: 0.325781
Train Epoch: 149 [0/60000 (0%)]	Loss: 0.313495
Train Epoch: 149 [12800/60000 (21%)]	Loss: 0.310907
Train Epoch: 149 [25600/60000 (43%)]	Loss: 0.338097
Train Epoch: 149 [38400/60000 (64%)]	Loss: 0.324918
Train Epoch: 149 [51200/60000 (85%)]	Loss: 0.313576
Train Epoch: 149, Loss: 0.318971
ENCODER:
Sequential(
  (0): Linear(in_features=784, out_features=1000, bias=True)
  (1): ReLU()
  (2): Linear(in_features=1000, out_features=500, bias=True)
  (3): ReLU()
  (4): Linear(in_features=500, out_features=250, bias=True)
  (5): ReLU()
  (6): Linear(in_features=250, out_features=2, bias=True)
)
Running encoder on 10000 elements
Number of batches: 40
             0          1  labels
0     1.899994  -2.281654       7
1    -1.251336  -1.094464       2
2     2.740415   1.706705       1
3    -5.876454   1.678001       0
4     1.125000  -3.488121       4
...        ...        ...     ...
9995 -2.660406  -2.397797       2
9996 -0.147289  -0.155909       3
9997  3.063921  -0.724078       4
9998  5.966866  28.782314       5
9999 -2.420488   0.197568       6

[10000 rows x 3 columns]
Picked coordinates (56.49857755019933, 95.96254079384497)
DECODER:
Sequential(
  (7): Linear(in_features=2, out_features=250, bias=True)
  (8): ReLU()
  (9): Linear(in_features=250, out_features=500, bias=True)
  (10): ReLU()
  (11): Linear(in_features=500, out_features=1000, bias=True)
  (12): ReLU()
  (13): Linear(in_features=1000, out_features=784, bias=True)
)
Picked coordinates (-29.96302159594201, 45.40039395739075)
DECODER:
Sequential(
  (7): Linear(in_features=2, out_features=250, bias=True)
  (8): ReLU()
  (9): Linear(in_features=250, out_features=500, bias=True)
  (10): ReLU()
  (11): Linear(in_features=500, out_features=1000, bias=True)
  (12): ReLU()
  (13): Linear(in_features=1000, out_features=784, bias=True)
)
Picked coordinates (-25.490869915969185, 23.202378273093757)
DECODER:
Sequential(
  (7): Linear(in_features=2, out_features=250, bias=True)
  (8): ReLU()
  (9): Linear(in_features=250, out_features=500, bias=True)
  (10): ReLU()
  (11): Linear(in_features=500, out_features=1000, bias=True)
  (12): ReLU()
  (13): Linear(in_features=1000, out_features=784, bias=True)
)
Picked coordinates (72.52378773676863, 78.08080593705017)
DECODER:
Sequential(
  (7): Linear(in_features=2, out_features=250, bias=True)
  (8): ReLU()
  (9): Linear(in_features=250, out_features=500, bias=True)
  (10): ReLU()
  (11): Linear(in_features=500, out_features=1000, bias=True)
  (12): ReLU()
  (13): Linear(in_features=1000, out_features=784, bias=True)
)
Picked coordinates (-30.335700902606412, -53.874065075159635)
DECODER:
Sequential(
  (7): Linear(in_features=2, out_features=250, bias=True)
  (8): ReLU()
  (9): Linear(in_features=250, out_features=500, bias=True)
  (10): ReLU()
  (11): Linear(in_features=500, out_features=1000, bias=True)
  (12): ReLU()
  (13): Linear(in_features=1000, out_features=784, bias=True)
)
Picked coordinates (-29.017022874653435, -46.43663405640821)
DECODER:
Sequential(
  (7): Linear(in_features=2, out_features=250, bias=True)
  (8): ReLU()
  (9): Linear(in_features=250, out_features=500, bias=True)
  (10): ReLU()
  (11): Linear(in_features=500, out_features=1000, bias=True)
  (12): ReLU()
  (13): Linear(in_features=1000, out_features=784, bias=True)
)
Picked coordinates (-14.964860139279642, -9.823914691741665)
DECODER:
Sequential(
  (7): Linear(in_features=2, out_features=250, bias=True)
  (8): ReLU()
  (9): Linear(in_features=250, out_features=500, bias=True)
  (10): ReLU()
  (11): Linear(in_features=500, out_features=1000, bias=True)
  (12): ReLU()
  (13): Linear(in_features=1000, out_features=784, bias=True)
)
Picked coordinates (-2.8220332985460814, 2.239235619160035)
DECODER:
Sequential(
  (7): Linear(in_features=2, out_features=250, bias=True)
  (8): ReLU()
  (9): Linear(in_features=250, out_features=500, bias=True)
  (10): ReLU()
  (11): Linear(in_features=500, out_features=1000, bias=True)
  (12): ReLU()
  (13): Linear(in_features=1000, out_features=784, bias=True)
)
Picked coordinates (5.6944289653168205, 3.1462394019346016)
DECODER:
Sequential(
  (7): Linear(in_features=2, out_features=250, bias=True)
  (8): ReLU()
  (9): Linear(in_features=250, out_features=500, bias=True)
  (10): ReLU()
  (11): Linear(in_features=500, out_features=1000, bias=True)
  (12): ReLU()
  (13): Linear(in_features=1000, out_features=784, bias=True)
)
Picked coordinates (5.69442896531682, 3.1462394019346016)
DECODER:
Sequential(
  (7): Linear(in_features=2, out_features=250, bias=True)
  (8): ReLU()
  (9): Linear(in_features=250, out_features=500, bias=True)
  (10): ReLU()
  (11): Linear(in_features=500, out_features=1000, bias=True)
  (12): ReLU()
  (13): Linear(in_features=1000, out_features=784, bias=True)
)
Picked coordinates (5.6944289653168205, 3.1462394019346034)
DECODER:
Sequential(
  (7): Linear(in_features=2, out_features=250, bias=True)
  (8): ReLU()
  (9): Linear(in_features=250, out_features=500, bias=True)
  (10): ReLU()
  (11): Linear(in_features=500, out_features=1000, bias=True)
  (12): ReLU()
  (13): Linear(in_features=1000, out_features=784, bias=True)
)
Picked coordinates (5.6944289653168205, 3.1462394019346025)
DECODER:
Sequential(
  (7): Linear(in_features=2, out_features=250, bias=True)
  (8): ReLU()
  (9): Linear(in_features=250, out_features=500, bias=True)
  (10): ReLU()
  (11): Linear(in_features=500, out_features=1000, bias=True)
  (12): ReLU()
  (13): Linear(in_features=1000, out_features=784, bias=True)
)
Picked coordinates (None, None)
Picked coordinates (None, None)
Picked coordinates (5.6944289653168205, 3.146239401934602)
DECODER:
Sequential(
  (7): Linear(in_features=2, out_features=250, bias=True)
  (8): ReLU()
  (9): Linear(in_features=250, out_features=500, bias=True)
  (10): ReLU()
  (11): Linear(in_features=500, out_features=1000, bias=True)
  (12): ReLU()
  (13): Linear(in_features=1000, out_features=784, bias=True)
)
Picked coordinates (5.69442896531682, 3.1462394019346025)
DECODER:
Sequential(
  (7): Linear(in_features=2, out_features=250, bias=True)
  (8): ReLU()
  (9): Linear(in_features=250, out_features=500, bias=True)
  (10): ReLU()
  (11): Linear(in_features=500, out_features=1000, bias=True)
  (12): ReLU()
  (13): Linear(in_features=1000, out_features=784, bias=True)
)
Picked coordinates (5.694428965316819, 3.1462394019346025)
DECODER:
Sequential(
  (7): Linear(in_features=2, out_features=250, bias=True)
  (8): ReLU()
  (9): Linear(in_features=250, out_features=500, bias=True)
  (10): ReLU()
  (11): Linear(in_features=500, out_features=1000, bias=True)
  (12): ReLU()
  (13): Linear(in_features=1000, out_features=784, bias=True)
)
Picked coordinates (6.589887117110988, 3.284351341584365)
DECODER:
Sequential(
  (7): Linear(in_features=2, out_features=250, bias=True)
  (8): ReLU()
  (9): Linear(in_features=250, out_features=500, bias=True)
  (10): ReLU()
  (11): Linear(in_features=500, out_features=1000, bias=True)
  (12): ReLU()
  (13): Linear(in_features=1000, out_features=784, bias=True)
)
